part-0-prerequisites/mnist_model_weights.pth (torch, 409685 bytes, 4 tensors)

fc1.weight f4 [128, 784]
0	0xbc2bcab3	-0.010485339
1	0xbca2ec07	-0.019887937
2	0xbd151dd8	-0.036405414
3	0x3b7ef2db	0.0038902077
4	0xbc486f45	-0.01223356
5	0xbd251d66	-0.04031124
6	0x3c0176f3	0.007901895
7	0x3c049f79	0.008094662
8	0x3cc5ffb4	0.02416978
9	0xbcd0c8f7	-0.025486453
10	0x39d51c3f	0.0004064757
11	0xbc4398e8	-0.011938311
12	0x3cda85c3	0.02667511
13	0x3b9f0408	0.0048527755
14	0xbd1bc43a	-0.038028933
15	0x3bb8a367	0.0056347135
16	0x3bd29926	0.006426948
17	0xbbf96ee2	-0.007612095
18	0xbccf227e	-0.025285002
19	0xbd1410db	-0.036148887
20	0x3b49dad6	0.0030800602
21	0x3cace356	0.021104496
22	0x3c21ddd0	0.009879544
23	0x3c52b569	0.012860634
24	0x3bb8bbe7	0.005637634
25	0xbc02d6ed	-0.007985813
26	0xbd237f98	-0.039916605
27	0x3b770896	0.0037694327
28	0xbb575c15	-0.0032861282
29	0x3ab2f6f3	0.0013653919
30	0xba9914f0	-0.0011679213
31	0xbcbdce1e	-0.023169573
32	0xbceab90e	-0.028652694
33	0x3c573b3c	0.013136681
34	0x3c4aa99d	0.0123695405
35	0x3cd1fc42	0.025632981
36	0xbbc5c944	-0.0060359556
37	0x3bc42907	0.005986336
38	0xbb10f82a	-0.0022120574
39	0xbb055849	-0.0020346812
40	0x3ca7a8d2	0.020466242
41	0xbcb1f63c	-0.021723859
42	0x3c1e4d8c	0.009662043
43	0x3cda2152	0.026627216
44	0x3cc8e5ff	0.024523733
45	0x3cd9f9b9	0.026608335
46	0xbb08a85c	-0.0020852303
47	0xbbe0dfd8	-0.0068626218
48	0x3befcac2	0.007317872
49	0xbcb20242	-0.021729592
50	0xbb093851	-0.0020938108
51	0x3b322c3a	0.0027187006
52	0xbcc459de	-0.023968633
53	0x3c811ebb	0.015761724
54	0x3ca54bd8	0.020177767
55	0xbd13fd19	-0.036130045
56	0xbbf47ffd	-0.0074615465
57	0xbbab4b04	-0.0052274484
58	0x3b963a35	0.0045845755
59	0xbcacf725	-0.021113941
60	0x3cb75665	0.022380063
61	0xbc1c17ac	-0.009527128
62	0x3c0cc48e	0.008591784
63	0xbc538837	-0.012910894
64	0xbcd447a7	-0.025913073
65	0x3c4bd071	0.012439833
66	0xbd1c6360	-0.03818071
67	0xbcf10fe4	-0.029426523
68	0xbc81c861	-0.015842618
69	0xbd049e30	-0.03237742
70	0x3bdd78a8	0.006758768
71	0xbd188ccb	-0.037243646
72	0x3c93891e	0.018009719
73	0xbb13ae7b	-0.0022534418
74	0xbcfd4074	-0.030914523
75	0xbbaf3e95	-0.0053480365
76	0x3c7a7321	0.015286238
77	0x3cab0178	0.020874724
78	0xbc91b666	-0.01778717
79	0xbcefe076	-0.029281836
80	0xbc2915c7	-0.0103201335
81	0xbcb8785a	-0.022518326
82	0x3c9506ef	0.018191783
83	0xbd104eba	-0.03523133
84	0xbc203811	-0.009778992
85	0x3c9845d3	0.018587982
86	0xbbfe0e6a	-0.007753183
87	0xbd045f3e	-0.032317393
88	0xbbb6ed3d	-0.00558248
89	0x3c254928	0.010088243
90	0x3c70f53d	0.014706907
91	0xbc36bb84	-0.011153106
92	0x3c94a3f6	0.018144589
93	0x3c2be559	0.010491692
94	0xbc93d1b8	-0.018044338
95	0xbd23ff58	-0.040038437
96	0xbd459b0c	-0.048243567
97	0xbd232832	-0.039833255
98	0xbce73fef	-0.028228728
99	0xbd23da00	-0.040002823
100	0x3d063158	0.0327619
101	0xbc8116ac	-0.015757881
102	0x3b6025a1	0.0034202116
103	0x3cd06645	0.02543939
104	0xbd05155c	-0.032491073
105	0xbcce9355	-0.025216738
106	0x3c3a5248	0.011372156
107	0xbc63c925	-0.013902937
108	0x3cc8b252	0.024499092
109	0xbc9eb5aa	-0.019373734
110	0xbce09604	-0.027415283
111	0xbd2e3b82	-0.04253722
112	0x3a118aa5	0.00055519707
113	0xbc879961	-0.016552629
114	0xbc717b2a	-0.014738837
115	0x3c4ddea0	0.012565285
116	0xbc88b490	-0.016687661
117	0x3c139cb0	0.009009525
118	0xbd5f7c2d	-0.054561783
119	0xbd001a02	-0.031274803
120	0xbd59e025	-0.053192277
121	0xbc062ebe	-0.008189855
122	0xbb883bf1	-0.004157536
123	0xbd006d71	-0.03135437
124	0xbd79b357	-0.060962047
125	0xbd46e579	-0.048558686
126	0x3ba4f3b6	0.0050339354
127	0x3d408a0b	0.047006648
128	0xbc21c135	-0.009872724
129	0x3d391217	0.045183267
130	0x3c0b40f1	0.00849937
131	0xbcedba70	-0.029019564
132	0xbcb129bd	-0.021626348
133	0xbc97c1d8	-0.01852505
134	0x3b44a466	0.0030005216
135	0x3d18e77c	0.037330136
136	0xbd093658	-0.033499092
137	0xbd26482b	-0.04059617
138	0x3c269e3f	0.010169565
139	0xbd256c0e	-0.040386252
140	0xbb67ae88	-0.0035351831
141	0xbca6b9a5	-0.020352194
142	0xbccbecd2	-0.024893198
143	0x3cbf20f4	0.023331143
144	0x3c6bf629	0.014401951
145	0xbc8e8d57	-0.01740138
146	0xbd6db14b	-0.058030408
147	0xbd875842	-0.06608631
148	0xbba55325	-0.005045312
149	0xbd393601	-0.045217518
150	0xbcda23b6	-0.026628356
151	0xbd2238ae	-0.039604835
152	0x3b6c9b0c	0.0036103157
153	0xbc59b7f6	-0.013288489
154	0x3ce639a5	0.028103659
155	0xbca9e866	-0.020740699
156	0xbbb58306	-0.005539301
157	0xbc3d7b33	-0.0115650175
158	0xbbaf8559	-0.0053564725
159	0xbcba7fc6	-0.022766005
160	0xbce1ec90	-0.027578622
161	0x3c814a5e	0.015782531
162	0x3d3bac71	0.04581875
163	0x3be6f887	0.0070486697
164	0xbc833d76	-0.016020518
165	0xbca8438a	-0.020540018
166	0x3ce83291	0.028344424
167	0xbcd9c2f3	-0.026582217
168	0xbc22b421	-0.009930641
169	0xbc9f879e	-0.019473847
170	0x3cd9b57e	0.0265758
171	0xbb01dcd5	-0.0019815464
172	0xbc26ab18	-0.010172628
173	0xbd7b9ed5	-0.06143077
174	0xbd92e94a	-0.071734026
175	0xbd356de5	-0.044294257
176	0xbca8db02	-0.020612244
177	0xbd608c7f	-0.054821488
178	0x3cca8b99	0.024724768
179	0xbc5aedde	-0.013362376
180	0xbc4157da	-0.011800731
181	0x3beac8d1	0.0071650525
182	0xbc5e430d	-0.013565791
183	0xbab24d18	-0.0013603298
184	0xbc25caa6	-0.010119116
185	0xbc28f926	-0.010313308
186	0x3bcc6c71	0.006238513
187	0xbc205f1b	-0.0097883
188	0xbc85bde4	-0.016325898
189	0x3cdf48f0	0.027256459
190	0x3cdcdbf7	0.026960356
191	0xbb37d2fd	-0.0028049343
192	0x3ccecaef	0.02524325
193	0xbc9ec4c7	-0.01938094
194	0xbb3244fb	-0.002720176
195	0x3c854d07	0.016272081
196	0x3c8f6356	0.017503422
197	0x3c1583a2	0.009125622
198	0xbd0c6c62	-0.03428305
199	0xbd31ccfc	-0.04340838
200	0xbd0f2cdc	-0.03495489
201	0xbd24ed1b	-0.040265184
202	0xbcc958f5	-0.02457855
203	0xbbe6a192	-0.0070383037
204	0x3b89f123	0.004209654
205	0x3d03aa16	0.03214463
206	0x3d1f3038	0.038864344
207	0x3d9404c3	0.07227471
208	0x3d5e20af	0.05423039
209	0x3a5e7df9	0.00084873993
210	0x3cf6cd25	0.030127117
211	0x3d2aa3ef	0.041660246
212	0x3d32b132	0.043626018
213	0x3d0599b4	0.032617286
214	0x3c194bf3	0.009356487
215	0x3ce7ab56	0.028279942
216	0x3cd70076	0.026245337
217	0xbd147082	-0.03624011
218	0x3c6323c4	0.013863508
219	0x3cfc792a	0.030819494
220	0x3cc81ecd	0.02442875
221	0x3d14fd3a	0.03637431
222	0x3ad2b637	0.0016076033
223	0xbc8ce159	-0.017197298
224	0x3ce3baff	0.027799128
225	0xbc29ffee	-0.01037596
226	0x3bff83f1	0.007797711
227	0xbd1ace32	-0.0377943
228	0xbced7f9b	-0.028991511
229	0xbcdfe71e	-0.027331885
230	0xbc9796e7	-0.018504573
231	0x3c900fcb	0.017585656
232	0x3c7ee49a	0.015557433
233	0x3d56612a	0.052338757
234	0x3d8f6d82	0.07003309
235	0x3d684e63	0.05671538
236	0x3c6c8a55	0.014437278
237	0x3bef438e	0.0073017543
238	0xbcca923e	-0.024727937
239	0x3d09424f	0.033510502
240	0x3d0b230c	0.03396897
241	0x3d0ab92f	0.03386801
242	0xbb8d765f	-0.0043170894
243	0xbabc15ea	-0.0014349793
244	0x3c3b8689	0.01144565
245	0x3cd55c38	0.02604495
246	0xbcf70436	-0.030153375
247	0x3cd8138f	0.026376514
248	0x3d29fd22	0.041501172
249	0x3c98f46f	0.018671243
250	0x3b95da56	0.004573147
251	0xbd138472	-0.03601498
252	0xba9c82ed	-0.0011940874
253	0xbbc75643	-0.0060832812
254	0xbba41dbd	-0.005008428
255	0xbcf303dd	-0.029664928

fc1.bias f4 [128]
0	0x3d1452c9	0.036211763
1	0x3b8b3686	0.004248443
2	0x3cc4d862	0.02402896
3	0x3c4f67b2	0.012659
4	0xbcc9a641	-0.024615409
5	0x3c53995a	0.01291498
6	0xbc9df745	-0.019282946
7	0xbd12548a	-0.035725154
8	0xbc9210e6	-0.017830323
9	0xbc0309d9	-0.007997953
10	0x3d18191b	0.037133317
11	0x3d4b6861	0.04966009
12	0xbc15618c	-0.009117495
13	0xbd0d47dc	-0.03449236
14	0x3cb7f852	0.022457276
15	0x3c45635b	0.012047614
16	0x3c0071a3	0.007839593
17	0x3c6b434f	0.014359309
18	0x3c1c607a	0.009544486
19	0xbaa4f9de	-0.0012586673
20	0xbbcef4d6	-0.006315808
21	0x3a9ec0e6	0.0012111932
22	0xbc508deb	-0.012729148
23	0x3d09e6f6	0.033667527
24	0x3c87c583	0.016573673
25	0xbbbad35b	-0.005701465
26	0x3c157448	0.009121962
27	0x3d167a1c	0.036737546
28	0x3c5d8a97	0.013521812
29	0x3b8026d5	0.003910879
30	0x3d154253	0.036440205
31	0x3bc0c8ac	0.005883297
32	0x3ce778b4	0.028255798
33	0xbc9c9b85	-0.019117126
34	0x3bda72ef	0.006666533
35	0x3c2047fa	0.009782786
36	0xbc4da790	-0.012552157
37	0xb9a92d0d	-0.00032267757
38	0x3c25d668	0.010121919
39	0x3d44aa52	0.048013993
40	0xbca37d10	-0.019957095
41	0xbd0790b5	-0.033096988
42	0x3c964121	0.018341603
43	0xbc99a556	-0.018755596
44	0xbd3573bc	-0.044299826
45	0xbc610c42	-0.013735833
46	0xbccf9629	-0.025340157
47	0xbce954e8	-0.02848287
48	0x3c8ccbc0	0.017187
49	0x3aa4d1ae	0.0012574696
50	0x3cd986c9	0.026553528
51	0x3c14757f	0.009061216
52	0x3c701b8f	0.014655008
53	0x3aa2ddf5	0.0012425767
54	0xbc38c559	-0.01127752
55	0x3b03c46f	0.0020106097
56	0x3cc05205	0.02347661
57	0xbcaa9406	-0.020822536
58	0xbccd20d7	-0.025040073
59	0xbc9e10b9	-0.019295083
60	0x3c25642a	0.010094682
61	0x3c6ba2da	0.014382089
62	0x3c1c93c9	0.009556719
63	0xbc9de64b	-0.019274851
64	0xbc4e4d18	-0.012591623
65	0x3d1ad6ff	0.037802693
66	0xbca082d5	-0.019593636
67	0x3c7a9004	0.015293125
68	0xbceda66b	-0.029010018
69	0xbaa2eb19	-0.0012429684
70	0x3cd11d85	0.025526771
71	0x3d0d6518	0.03452024
72	0xbcc72485	-0.024309406
73	0xbc9a868c	-0.018862985
74	0xbb416dee	-0.0029514986
75	0x3c87ba00	0.016568184
76	0xbc6eebd7	-0.014582596
77	0xbce3388b	-0.027736923
78	0x3c391f9b	0.011299039
79	0x3bc65599	0.0060526845
80	0x3cf8b49b	0.030359557
81	0x3c8e23ed	0.017351115
82	0x3cfaf4f0	0.030634373
83	0xbc8d3548	-0.01723732
84	0xbaa63e65	-0.001268339
85	0x3cb339cd	0.021878147
86	0x3c5b2b62	0.0133770425
87	0x3d09fb47	0.033686902
88	0xbc8b8313	-0.017030274
89	0xbc62a99e	-0.013834385
90	0xbca6d6d8	-0.020366117
91	0xbd06acef	-0.032879766
92	0x3cf40424	0.02978713
93	0x3cb25c22	0.021772448
94	0x3cab142b	0.02088364
95	0xbc5bd449	-0.013417312
96	0xbc0c01e5	-0.008545374
97	0x3ca5583f	0.02018368
98	0x3ced2e4c	0.02895274
99	0x3c9dfc50	0.019285351
100	0x3d10a7af	0.035316166
101	0x3cbc567a	0.022990454
102	0x3d0973a4	0.03355755
103	0xbd0d96a2	-0.034567483
104	0x3be4a2ea	0.0069774287
105	0x3ca85c0f	0.02055171
106	0x3a02df7b	0.00049924076
107	0xbcb134eb	-0.021631679
108	0xba477901	-0.00076092785
109	0xbd00709c	-0.031357393
110	0x3bc1f172	0.005918675
111	0xbcb2f4e3	-0.021845287
112	0x3ca66413	0.020311391
113	0xbb6c1c6e	-0.0036027688
114	0xbc0762a1	-0.008263261
115	0xbcef9422	-0.02924544
116	0xbbd0d8fc	-0.006373523
117	0x3ce66090	0.028122216
118	0x3b9cb1fd	0.00478196
119	0x3cb43686	0.021998655
120	0x3d057910	0.032586157
121	0xbd1110ca	-0.035416402
122	0xbcad5711	-0.02115968
123	0x3cda7223	0.026665753
124	0xbcfd5a4f	-0.030926852
125	0x3c8d1630	0.017222494
126	0xbca5efec	-0.020256005
127	0xbcafea8b	-0.021474143

fc2.weight f4 [10, 128]
0	0x3e736f7d	0.23772998
1	0x3ca8df26	0.020614218
2	0xbd2d7c9d	-0.04235517
3	0xbd144693	-0.036200117
4	0xbdb32004	-0.08746341
5	0x3e52dff5	0.20593245
6	0x3db24e8a	0.087063864
7	0x3d282b9f	0.041057225
8	0xbe028d8a	-0.12749305
9	0x3e3f2dda	0.18669835
10	0x3cfdb679	0.030970799
11	0xbde0fbff	-0.109855644
12	0x3de5847f	0.11206912
13	0xbe2d1d3f	-0.16905688
14	0xbd92309e	-0.07138179
15	0xbe221ef5	-0.15832122
16	0xbe328eea	-0.1743733
17	0xbd28b3af	-0.041186985
18	0xbda06b24	-0.078329355
19	0xbe396f6c	-0.1810891
20	0x3e1f7497	0.15571819
21	0xbdde3bf5	-0.1085128
22	0xbc79dbdc	-0.0152501725
23	0x3d816384	0.06317809
24	0xbe905f8c	-0.28197896
25	0x3e446780	0.19180107
26	0x3e85aaf8	0.26107
27	0xbd8d5ad1	-0.069020875
28	0xbe8b4569	-0.27201393
29	0x3e528fcc	0.20562667
30	0xbcfec040	-0.031097531
31	0xbc1e5e0a	-0.009665975
32	0xbd3732d0	-0.044726193
33	0xbccd7bc6	-0.025083434
34	0x3e861778	0.2618978
35	0x3e893371	0.2679706
36	0xbe5152a9	-0.20441689
37	0x3ca1bd13	0.019743478
38	0x3e1c21b7	0.15247236
39	0x3e40d408	0.18830884
40	0xbd1d1175	-0.038346726
41	0xbc682413	-0.014168757
42	0x3c6cdecc	0.014457416
43	0xbe4a6c4b	-0.19767873
44	0xbd0928c2	-0.033486135
45	0x3e2a7535	0.16646273
46	0x3e362891	0.17788912
47	0x3ca3913c	0.019966714
48	0xbdfb0f53	-0.12258782
49	0xbcc74562	-0.024325076
50	0xbc7f780a	-0.015592584
51	0xbda0ad13	-0.07845511
52	0xbea1a502	-0.31571203
53	0xbe171933	-0.14755706
54	0xbe03d02c	-0.1287238
55	0xbdc91e54	-0.09820238
56	0x3da54c71	0.08071221
57	0xbd77a4f6	-0.060460053
58	0x3dccd538	0.10001606
59	0x3d7818f8	0.060570687
60	0xbec7ff5c	-0.3906201
61	0xbeac7534	-0.3368317
62	0x3e6701de	0.22559306
63	0xbdc2daa3	-0.09514358
64	0x3e601725	0.21883829
65	0x3e0c3918	0.13693655
66	0xbd90cb1d	-0.07069991
67	0x3d4796df	0.048727866
68	0x3cf54774	0.029941298
69	0xbdb10c62	-0.0864494
70	0xbcf89e35	-0.030348876
71	0x3e4d32ae	0.20038864
72	0xbe2a5a46	-0.16635999
73	0xbc4a3ce6	-0.012343621
74	0xbc1c69ae	-0.00954668
75	0xbdf87698	-0.12131995
76	0x3e0b5f6b	0.13610618
77	0xbcd4d93b	-0.02598249
78	0xbe25e889	-0.16201986
79	0x3cde2ea8	0.027121857
80	0x3d59ed99	0.053205106
81	0xbd3dbd9c	-0.046323404
82	0xbd3a6ad0	-0.04551202
83	0xbe271b8f	-0.16319107
84	0xbd6e563c	-0.05818771
85	0xbbd4be68	-0.0064924248
86	0xbe0ceeef	-0.13763021
87	0x3e165548	0.1468097
88	0xbe3ab839	-0.18234338
89	0x3d558628	0.052129894
90	0x3e38d01c	0.18048137
91	0x3e20e78d	0.1571333
92	0xbdb786bb	-0.08961245
93	0xbd21d82f	-0.03951281
94	0x3e0bb749	0.13644136
95	0xbdac6d18	-0.084192455
96	0xbda8d2e8	-0.08243352
97	0x3d82a149	0.06378419
98	0xbda7a32f	-0.08185422
99	0x3dd6b360	0.10483432
100	0xbd72b236	-0.059251986
101	0x3df8f359	0.1215579
102	0xbe6584f6	-0.22414002
103	0x3e0242d4	0.12720805
104	0x3dd9dfd1	0.10638393
105	0x3e9b00da	0.30274087
106	0xbe849951	-0.2589822
107	0xbe373d66	-0.17894515
108	0x3dbe4e8a	0.09292324
109	0xbd10fb83	-0.03539611
110	0x3e0499b2	0.12949255
111	0x3d888cbc	0.06667468
112	0x3e33246f	0.17494367
113	0xbce8caa2	-0.028416935
114	0x3ca5bb19	0.020230817
115	0xbdaaae70	-0.083340526
116	0xbd9efadd	-0.07762692
117	0xbc65d029	-0.01402668
118	0x3d959f59	0.07305784
119	0xbdba22fe	-0.090887055
120	0x3d38571a	0.04500494
121	0xbd0b47b4	-0.03400393
122	0xbc990169	-0.01867743
123	0xbe9fd066	-0.31213683
124	0x3e087d52	0.13329056
125	0xb9760bca	-0.0002346478
126	0xbdc52c1d	-0.096275546
127	0xbd57e474	-0.052708104
128	0x3d590eef	0.052992757
129	0xbde72176	-0.11285679
130	0xbdf00e3b	-0.11721464
131	0x3dbd23f4	0.09235373
132	0x3e127ff7	0.14306627
133	0x3b08d2dd	0.0020877637
134	0xbc2e5c9e	-0.010642199
135	0xbe591402	-0.21199039
136	0xbe3e5684	-0.1858769
137	0xbd5468c7	-0.051857736
138	0x3cd489c8	0.025944605
139	0x3d5151a3	0.051103245
140	0xbd41027d	-0.047121514
141	0xbd86d897	-0.0658428
142	0xbe5cc88c	-0.21560878
143	0x3e4fe237	0.20301138
144	0x3dd9ad70	0.10628784
145	0x3ea1d2b6	0.31606072
146	0x3d81e18d	0.063418485
147	0x3db7c96f	0.08973967
148	0xbe6ba176	-0.23010811
149	0x3e1cbf3e	0.15307328
150	0xbda3a266	-0.079899594
151	0xbd4c9a8e	-0.049952082
152	0x3c42ab0d	0.011881602
153	0x3de0ee24	0.10982922
154	0xbe2e8147	-0.17041503
155	0xbd184af8	-0.03718087
156	0x3d063a04	0.03277017
157	0xbe8a391f	-0.26996705
158	0xbe571798	-0.21005094
159	0x3e0ee9cb	0.13956372
160	0x3dba0797	0.09083479
161	0x3da0c313	0.078497075
162	0xbe1e6890	-0.15469575
163	0xbdc6f407	-0.09714513
164	0xbdfa4a5a	-0.12221213
165	0x3e05b39b	0.13056795
166	0x3ec64da8	0.38731122
167	0xbbcaba6c	-0.006186774
168	0xbe65721a	-0.22406808
169	0xbd91f13f	-0.07126092
170	0x3d85a191	0.06524957
171	0xbdf630a0	-0.12020993
172	0x3e657c47	0.2241069
173	0x3dab945e	0.08377908
174	0xbd9730b6	-0.07382338
175	0x3d9f4fe9	0.077789135
176	0xbd93d7c3	-0.07218888
177	0xbcdc5a55	-0.026898542
178	0xbe23c6f7	-0.15993868
179	0x3d15d88e	0.036583476
180	0x3e8c02ff	0.27346036
181	0x3e8247c0	0.25445366
182	0xbdf6ee63	-0.120571874
183	0x3de51cfe	0.111871704
184	0x3d0a9827	0.03383651
185	0x3e88b131	0.26697686
186	0x3d33aa8f	0.04386383
187	0x3bc357cf	0.0059613953
188	0x3d5985f6	0.05310627
189	0xbd4c7819	-0.04991922
190	0x3bfde942	0.0077487538
191	0x3ab425cd	0.0013744176
192	0x3dd6abec	0.1048201
193	0xbcce11a8	-0.025154904
194	0x3db348b9	0.08754105
195	0xbe40c945	-0.18826778
196	0xbcdb8ada	-0.026799608
197	0xbe1b415c	-0.15161651
198	0x3d9a6304	0.07538417
199	0xbd021fa5	-0.03176846
200	0xbe013ac7	-0.12620078
201	0xbe6fc846	-0.23416242
202	0xbc1a9034	-0.009433795
203	0xbe3395de	-0.17537639
204	0xbe523f05	-0.20531853
205	0x3cd30a12	0.025761638
206	0xbdb9a893	-0.09065356
207	0x3d70e08f	0.058807906
208	0xbdd5ce9e	-0.104398
209	0x3b46a72a	0.003031204
210	0x3e028efb	0.12749855
211	0x3e88821a	0.2666176
212	0x3d539dd4	0.05166419
213	0xbd14f418	-0.0363656
214	0xbbb5bc41	-0.0055461233
215	0xbd745fea	-0.059661783
216	0x3e22b80c	0.15890521
217	0x3c15ce27	0.009143389
218	0xbe73ddd8	-0.23815095
219	0xbd5354d6	-0.051594578
220	0x3e3946d0	0.18093419
221	0x3d46aa06	0.04850199
222	0xbd959a9c	-0.0730488
223	0x3db8bf8b	0.09020909
224	0xbe930af8	-0.28719306
225	0xbe75ea65	-0.24015196
226	0x3e974f2b	0.29552588
227	0xbd4f399a	-0.050592043
228	0xbd31bd83	-0.043393623
229	0xbdbec44f	-0.09314787
230	0x3e5db943	0.21652703
231	0xbd8f6807	-0.070022635
232	0xbe6acbea	-0.2292935
233	0x3d2f33b3	0.042773914
234	0x3df37022	0.11886622
235	0xbebf8e0f	-0.3741307
236	0xbd46b9b0	-0.04851693
237	0x3e94525c	0.28969085
238	0xbd3a4273	-0.045473527
239	0x3e15d07e	0.14630315
240	0xb8905f3d	-6.8841946e-05
241	0x3e9cd147	0.30628416
242	0xbdae62f0	-0.085149646
243	0x3e036270	0.1283052
244	0xbdca4395	-0.098761715
245	0x3e46a801	0.19400026
246	0xbddc7a6d	-0.10765538
247	0xb9f4fd9c	-0.0004672826
248	0xbe34b3b5	-0.17646678
249	0x3dcc70fc	0.099824876
250	0x3dc5388f	0.09629928
251	0xbe22b3c2	-0.15888885
252	0xbd80bae9	-0.0628565
253	0x3e68b5fc	0.22725672
254	0x3c9cbd4e	0.019133236
255	0xbdb512a2	-0.088414446

fc2.bias f4 [10]
0	0xbc8da7c6	-0.017291915
1	0xbd8e2c08	-0.06941992
2	0xbc85e189	-0.016342895
3	0xbd871b87	-0.06597047
4	0x3d105230	0.03523463
5	0x3cdf97ee	0.027294125
6	0xbdca3d55	-0.098749794
7	0xbd8e9472	-0.069619074
8	0x3e4c91af	0.19977449
9	0x3a859c31	0.0010193643
